Trovate 1 GPU:
 - /physical_device:GPU:0

================= [STEP 1.0] Load and preprocess the datasets =================
Training Set Size: 88578
Validation Set Size: 22145
Test Set Size: 27681
Data are preprocessed!

================= [STEP 2.0] Training Phase =================
CNN Created:

Model: "sequential"
_________________________________________________________________
 Layer (type)                Output Shape              Param #
=================================================================
 conv1d (Conv1D)             (None, 31, 64)            256

 max_pooling1d (MaxPooling1  (None, 15, 64)            0
 D)

 dropout (Dropout)           (None, 15, 64)            0

 conv1d_1 (Conv1D)           (None, 15, 128)           24704

 max_pooling1d_1 (MaxPoolin  (None, 7, 128)            0
 g1D)

 conv1d_2 (Conv1D)           (None, 7, 256)            98560

 max_pooling1d_2 (MaxPoolin  (None, 3, 256)            0
 g1D)

 conv1d_3 (Conv1D)           (None, 3, 256)            196864

 max_pooling1d_3 (MaxPoolin  (None, 1, 256)            0
 g1D)

 flatten (Flatten)           (None, 256)               0

 dense (Dense)               (None, 256)               65792

 dropout_1 (Dropout)         (None, 256)               0

 dense_1 (Dense)             (None, 256)               65792

 dropout_2 (Dropout)         (None, 256)               0

 dense_2 (Dense)             (None, 4)                 1028

=================================================================
Total params: 452996 (1.73 MB)
Trainable params: 452996 (1.73 MB)
Non-trainable params: 0 (0.00 Byte)
_________________________________________________________________
Epoch 1/100
347/347 [==============================] - 10s 16ms/step - loss: 0.6413 - accuracy: 0.7344 - val_loss: 0.4915 - val_accuracy: 0.8091
Epoch 2/100
347/347 [==============================] - 5s 14ms/step - loss: 0.4200 - accuracy: 0.8383 - val_loss: 0.3736 - val_accuracy: 0.8507
…
