Trovate 1 GPU:
 - /physical_device:GPU:0

================= [STEP 1.0] Load and preprocess the datasets =================
Training Set Size: 138
Validation Set Size: 35
Test Set Size: 172832
Data are preprocessed!

================= [STEP 2.0] Training Phase =================
CNN Created:

Model: "sequential"
_________________________________________________________________
 Layer (type)                Output Shape              Param #
=================================================================
 conv1d (Conv1D)             (None, 31, 64)            256

 max_pooling1d (MaxPooling1  (None, 15, 64)            0
 D)

 dropout (Dropout)           (None, 15, 64)            0

 conv1d_1 (Conv1D)           (None, 15, 128)           24704

 max_pooling1d_1 (MaxPoolin  (None, 7, 128)            0
 g1D)

 conv1d_2 (Conv1D)           (None, 7, 256)            98560

 max_pooling1d_2 (MaxPoolin  (None, 3, 256)            0
 g1D)

 conv1d_3 (Conv1D)           (None, 3, 256)            196864

 max_pooling1d_3 (MaxPoolin  (None, 1, 256)            0
 g1D)

 flatten (Flatten)           (None, 256)               0

 dense (Dense)               (None, 256)               65792

 dropout_1 (Dropout)         (None, 256)               0

 dense_1 (Dense)             (None, 256)               65792

 dropout_2 (Dropout)         (None, 256)               0

 dense_2 (Dense)             (None, 5)                 1285

=================================================================
Total params: 453253 (1.73 MB)
Trainable params: 453253 (1.73 MB)
Non-trainable params: 0 (0.00 Byte)
_________________________________________________________________
Epoch 1/100
1/1 [==============================] - 5s 5s/step - loss: 1.6044 - accuracy: 0.2681 - val_loss: 1.5995 - val_accuracy: 0.2571
Epoch 2/100
1/1 [==============================] - 0s 35ms/step - loss: 1.6073 - accuracy: 0.1884 - val_loss: 1.5880 - val_accuracy: 0.2000
…
